DATA_DIR	data/fluocells-resized1/
train_percentage	0.8
input_dim	3
output_dim	2
batch_size	2
learning_rate	0.001
num_epochs	10
dropout_rate	0.7
model_description	UNet(
  (down1): DoubleConv(
    (double_conv): Sequential(
      (0): Conv2d(3, 4, kernel_size=(3, 3), stride=(1, 1), padding=(1, 1))
      (1): BatchNorm2d(4, eps=1e-05, momentum=0.1, affine=True, track_running_stats=True)
      (2): ReLU(inplace=True)
      (3): Conv2d(4, 4, kernel_size=(3, 3), stride=(1, 1), padding=(1, 1))
      (4): BatchNorm2d(4, eps=1e-05, momentum=0.1, affine=True, track_running_stats=True)
      (5): ReLU(inplace=True)
    )
  )
  (down2): DoubleConv(
    (double_conv): Sequential(
      (0): Conv2d(4, 2, kernel_size=(3, 3), stride=(1, 1), padding=(1, 1))
      (1): BatchNorm2d(2, eps=1e-05, momentum=0.1, affine=True, track_running_stats=True)
      (2): ReLU(inplace=True)
      (3): Conv2d(2, 2, kernel_size=(3, 3), stride=(1, 1), padding=(1, 1))
      (4): BatchNorm2d(2, eps=1e-05, momentum=0.1, affine=True, track_running_stats=True)
      (5): ReLU(inplace=True)
    )
  )
  (up2): ConvTranspose2d(2, 4, kernel_size=(2, 2), stride=(2, 2))
  (up1): ConvTranspose2d(8, 2, kernel_size=(2, 2), stride=(2, 2))
)
optimizer	Adam
epoch_losses	0.660423664920098	0.6226706552294503	0.5978024433144425	0.5881027621505535	0.5845351799399452	0.58293725220503	0.5821343375518259	0.5817034640143403	0.5814535396288981	0.5812732957105721
test_metrics	dice	… test_metrics	image_total_pixels	120000	120000	120000	120000	120000	120000	120000	120000	120000	120000	120000	120000	120000
…
