DATA_DIR	data/fluocells-resized1/
train_percentage	0.8
input_dim	3
output_dim	2
batch_size	2
learning_rate	0.001
num_epochs	10
dropout_rate	0.7
model_description	UNet(
  (down1): DoubleConv(
    (double_conv): Sequential(
      (0): Conv2d(3, 16, kernel_size=(3, 3), stride=(1, 1), padding=(1, 1))
      (1): BatchNorm2d(16, eps=1e-05, momentum=0.1, affine=True, track_running_stats=True)
      (2): ReLU(inplace=True)
      (3): Conv2d(16, 16, kernel_size=(3, 3), stride=(1, 1), padding=(1, 1))
      (4): BatchNorm2d(16, eps=1e-05, momentum=0.1, affine=True, track_running_stats=True)
      (5): ReLU(inplace=True)
    )
  )
  (down2): DoubleConv(
    (double_conv): Sequential(
      (0): Conv2d(16, 8, kernel_size=(3, 3), stride=(1, 1), padding=(1, 1))
      (1): BatchNorm2d(8, eps=1e-05, momentum=0.1, affine=True, track_running_stats=True)
      (2): ReLU(inplace=True)
      (3): Conv2d(8, 8, kernel_size=(3, 3), stride=(1, 1), padding=(1, 1))
      (4): BatchNorm2d(8, eps=1e-05, momentum=0.1, affine=True, track_running_stats=True)
      (5): ReLU(inplace=True)
    )
  )
  (down3): DoubleConv(
    (double_conv): Sequential(
      (0): Conv2d(8, 4, kernel_size=(3, 3), stride=(1, 1), padding=(1, 1))
      (1): BatchNorm2d(4, eps=1e-05, momentum=0.1, affine=True, track_running_stats=True)
      (2): ReLU(inplace=True)
      (3): Conv2d(4, 4, kernel_size=(3, 3), stride=(1, 1), padding=(1, 1))
      (4): BatchNorm2d(4, eps=1e-05, momentum=0.1, affine=True, track_running_stats=True)
      (5): ReLU(inplace=True)
    )
  )
  (up3): ConvTranspose2d(4, 8, kernel_size=(2, 2), stride=(2, 2))
  (up2): ConvTranspose2d(16, 16, kernel_size=(2, 2), stride=(2, 2))
  (up1): ConvTranspose2d(32, 2, kernel_size=(2, 2), stride=(2, 2))
)
optimizer	Adam
epoch_losses	0.6188053072026346	0.5820339316815402	0.5807640104167229	0.5805874788655644	0.5804972142244862	0.5804917353444394	0.580428867213494	0.5804130893892947	0.5803823729531955	0.5803891367616907
test_metrics	dice	452	58	138	423	0.0	0.0	243	566	26	0.0	93	265	289	261	306	202	0.0	262	141	38	263	491	238	115	479	482	339	0.0	229	60	225	178	80	84	0.0	0.0	249	665	630	710	760	636	644	757	580	685	275	257	513	354	213	467	447	513	393	454	592
…
